{"format": "graph-model", "generatedBy": "2.4.1", "convertedBy": "TensorFlow.js Converter v3.13.0", "signature": {"inputs": {"input_0": {"name": "input_0:0", "dtype": "DT_FLOAT", "tensorShape": {"dim": [{"size": "1"}, {"size": "24"}]}}}, "outputs": {"output_0": {"name": "Identity:0", "dtype": "DT_FLOAT", "tensorShape": {"dim": [{"size": "1"}, {"size": "4"}]}}}}, "modelTopology": {"node": [{"name": "StatefulPartitionedCall/onnx_tf_prefix_Constant_8", "op": "Const", "attr": {"value": {"tensor": {"dtype": "DT_FLOAT", "tensorShape": {"dim": [{"size": "1"}, {"size": "4"}]}}}, "dtype": {"type": "DT_FLOAT"}}}, {"name": "StatefulPartitionedCall/onnx_tf_prefix_Transpose_5", "op": "Const", "attr": {"value": {"tensor": {"dtype": "DT_FLOAT", "tensorShape": {"dim": [{"size": "1"}, {"size": "4"}]}}}, "dtype": {"type": "DT_FLOAT"}}}, {"name": "StatefulPartitionedCall/onnx_tf_prefix_Constant_6", "op": "Const", "attr": {"dtype": {"type": "DT_INT64"}, "value": {"tensor": {"dtype": "DT_INT64", "tensorShape": {"dim": [{"size": "2"}]}}}}}, {"name": "StatefulPartitionedCall/Where", "op": "Const", "attr": {"value": {"tensor": {"dtype": "DT_INT64", "tensorShape": {"dim": [{}, {"size": "1"}]}}}, "dtype": {"type": "DT_INT64"}}}, {"name": "StatefulPartitionedCall/Cast", "op": "Const", "attr": {"dtype": {"type": "DT_INT64"}, "value": {"tensor": {"dtype": "DT_INT64", "tensorShape": {"dim": [{"size": "1"}]}}}}}, {"name": "StatefulPartitionedCall/GatherV2", "op": "Const", "attr": {"value": {"tensor": {"dtype": "DT_INT64", "tensorShape": {"dim": [{}]}}}, "dtype": {"type": "DT_INT64"}}}, {"name": "StatefulPartitionedCall/zeros", "op": "Const", "attr": {"dtype": {"type": "DT_INT64"}, "value": {"tensor": {"dtype": "DT_INT64", "tensorShape": {}}}}}, {"name": "StatefulPartitionedCall/onnx_tf_prefix_RandomNormalLike_45/shape", "op": "Const", "attr": {"dtype": {"type": "DT_INT64"}, "value": {"tensor": {"dtype": "DT_INT64", "tensorShape": {"dim": [{"size": "2"}]}}}}}, {"name": "StatefulPartitionedCall/flatten/Const", "op": "Const", "attr": {"value": {"tensor": {"dtype": "DT_INT32", "tensorShape": {"dim": [{"size": "2"}]}}}, "dtype": {"type": "DT_INT32"}}}, {"name": "StatefulPartitionedCall/transpose", "op": "Const", "attr": {"dtype": {"type": "DT_FLOAT"}, "value": {"tensor": {"dtype": "DT_FLOAT", "tensorShape": {"dim": [{"size": "24"}, {"size": "64"}]}}}}}, {"name": "StatefulPartitionedCall/mul_1", "op": "Const", "attr": {"dtype": {"type": "DT_FLOAT"}, "value": {"tensor": {"dtype": "DT_FLOAT", "tensorShape": {"dim": [{"size": "64"}]}}}}}, {"name": "StatefulPartitionedCall/transpose_1", "op": "Const", "attr": {"value": {"tensor": {"dtype": "DT_FLOAT", "tensorShape": {"dim": [{"size": "64"}, {"size": "64"}]}}}, "dtype": {"type": "DT_FLOAT"}}}, {"name": "StatefulPartitionedCall/mul_3", "op": "Const", "attr": {"dtype": {"type": "DT_FLOAT"}, "value": {"tensor": {"dtype": "DT_FLOAT", "tensorShape": {"dim": [{"size": "64"}]}}}}}, {"name": "StatefulPartitionedCall/transpose_2", "op": "Const", "attr": {"dtype": {"type": "DT_FLOAT"}, "value": {"tensor": {"dtype": "DT_FLOAT", "tensorShape": {"dim": [{"size": "64"}, {"size": "4"}]}}}}}, {"name": "StatefulPartitionedCall/mul_5", "op": "Const", "attr": {"value": {"tensor": {"dtype": "DT_FLOAT", "tensorShape": {"dim": [{"size": "4"}]}}}, "dtype": {"type": "DT_FLOAT"}}}, {"name": "input_0", "op": "Placeholder", "attr": {"dtype": {"type": "DT_FLOAT"}, "shape": {"shape": {"dim": [{"size": "1"}, {"size": "24"}]}}}}, {"name": "StatefulPartitionedCall/SparseToDense", "op": "SparseToDense", "input": ["StatefulPartitionedCall/Where", "StatefulPartitionedCall/Cast", "StatefulPartitionedCall/GatherV2", "StatefulPartitionedCall/zeros"], "attr": {"validate_indices": {"b": true}, "T": {"type": "DT_INT64"}, "Tindices": {"type": "DT_INT64"}}}, {"name": "StatefulPartitionedCall/onnx_tf_prefix_RandomNormalLike_45/RandomStandardNormal", "op": "TruncatedNormal", "input": ["StatefulPartitionedCall/onnx_tf_prefix_RandomNormalLike_45/shape"], "attr": {"seed": {"i": "0"}, "dtype": {"type": "DT_FLOAT"}, "seed2": {"i": "0"}, "T": {"type": "DT_INT64"}}}, {"name": "StatefulPartitionedCall/flatten/Reshape", "op": "Reshape", "input": ["input_0", "StatefulPartitionedCall/flatten/Const"], "attr": {"T": {"type": "DT_FLOAT"}, "Tshape": {"type": "DT_INT32"}}}, {"name": "StatefulPartitionedCall/add_3", "op": "AddV2", "input": ["StatefulPartitionedCall/onnx_tf_prefix_Constant_6", "StatefulPartitionedCall/SparseToDense"], "attr": {"T": {"type": "DT_INT64"}}}, {"name": "StatefulPartitionedCall/MatMul", "op": "MatMul", "input": ["StatefulPartitionedCall/flatten/Reshape", "StatefulPartitionedCall/transpose"], "device": "/device:CPU:0", "attr": {"transpose_a": {"b": false}, "transpose_b": {"b": false}, "T": {"type": "DT_FLOAT"}}}, {"name": "StatefulPartitionedCall/onnx_tf_prefix_Reshape_7", "op": "Reshape", "input": ["StatefulPartitionedCall/onnx_tf_prefix_Transpose_5", "StatefulPartitionedCall/add_3"], "attr": {"Tshape": {"type": "DT_INT64"}, "T": {"type": "DT_FLOAT"}}}, {"name": "StatefulPartitionedCall/add", "op": "AddV2", "input": ["StatefulPartitionedCall/MatMul", "StatefulPartitionedCall/mul_1"], "attr": {"T": {"type": "DT_FLOAT"}}}, {"name": "StatefulPartitionedCall/onnx_tf_prefix_Add_9", "op": "Add", "input": ["StatefulPartitionedCall/onnx_tf_prefix_Constant_8", "StatefulPartitionedCall/onnx_tf_prefix_Reshape_7"], "attr": {"T": {"type": "DT_FLOAT"}}}, {"name": "StatefulPartitionedCall/onnx_tf_prefix_Tanh_1", "op": "Tanh", "input": ["StatefulPartitionedCall/add"], "attr": {"T": {"type": "DT_FLOAT"}}}, {"name": "StatefulPartitionedCall/onnx_tf_prefix_Exp_10", "op": "Exp", "input": ["StatefulPartitionedCall/onnx_tf_prefix_Add_9"], "attr": {"T": {"type": "DT_FLOAT"}}}, {"name": "StatefulPartitionedCall/MatMul_1", "op": "MatMul", "input": ["StatefulPartitionedCall/onnx_tf_prefix_Tanh_1", "StatefulPartitionedCall/transpose_1"], "device": "/device:CPU:0", "attr": {"T": {"type": "DT_FLOAT"}, "transpose_b": {"b": false}, "transpose_a": {"b": false}}}, {"name": "StatefulPartitionedCall/onnx_tf_prefix_Mul_46", "op": "Mul", "input": ["StatefulPartitionedCall/onnx_tf_prefix_Exp_10", "StatefulPartitionedCall/onnx_tf_prefix_RandomNormalLike_45/RandomStandardNormal"], "attr": {"T": {"type": "DT_FLOAT"}}}, {"name": "StatefulPartitionedCall/add_1", "op": "AddV2", "input": ["StatefulPartitionedCall/MatMul_1", "StatefulPartitionedCall/mul_3"], "attr": {"T": {"type": "DT_FLOAT"}}}, {"name": "StatefulPartitionedCall/onnx_tf_prefix_Tanh_3", "op": "Tanh", "input": ["StatefulPartitionedCall/add_1"], "attr": {"T": {"type": "DT_FLOAT"}}}, {"name": "StatefulPartitionedCall/MatMul_2", "op": "MatMul", "input": ["StatefulPartitionedCall/onnx_tf_prefix_Tanh_3", "StatefulPartitionedCall/transpose_2"], "device": "/device:CPU:0", "attr": {"T": {"type": "DT_FLOAT"}, "transpose_a": {"b": false}, "transpose_b": {"b": false}}}, {"name": "StatefulPartitionedCall/add_2", "op": "AddV2", "input": ["StatefulPartitionedCall/MatMul_2", "StatefulPartitionedCall/mul_5"], "attr": {"T": {"type": "DT_FLOAT"}}}, {"name": "StatefulPartitionedCall/onnx_tf_prefix_Add_47", "op": "Add", "input": ["StatefulPartitionedCall/onnx_tf_prefix_Mul_46", "StatefulPartitionedCall/add_2"], "attr": {"T": {"type": "DT_FLOAT"}}}, {"name": "Identity", "op": "Identity", "input": ["StatefulPartitionedCall/onnx_tf_prefix_Add_47"], "attr": {"T": {"type": "DT_FLOAT"}}}], "library": {}, "versions": {"producer": 561}}, "weightsManifest": [{"paths": ["group1-shard1of1.bin"], "weights": [{"name": "StatefulPartitionedCall/onnx_tf_prefix_Constant_8", "shape": [1, 4], "dtype": "float32"}, {"name": "StatefulPartitionedCall/onnx_tf_prefix_Transpose_5", "shape": [1, 4], "dtype": "float32"}, {"name": "StatefulPartitionedCall/onnx_tf_prefix_Constant_6", "shape": [2], "dtype": "int32"}, {"name": "StatefulPartitionedCall/Where", "shape": [0, 1], "dtype": "int32"}, {"name": "StatefulPartitionedCall/Cast", "shape": [1], "dtype": "int32"}, {"name": "StatefulPartitionedCall/GatherV2", "shape": [0], "dtype": "int32"}, {"name": "StatefulPartitionedCall/zeros", "shape": [], "dtype": "int32"}, {"name": "StatefulPartitionedCall/onnx_tf_prefix_RandomNormalLike_45/shape", "shape": [2], "dtype": "int32"}, {"name": "StatefulPartitionedCall/flatten/Const", "shape": [2], "dtype": "int32"}, {"name": "StatefulPartitionedCall/transpose", "shape": [24, 64], "dtype": "float32"}, {"name": "StatefulPartitionedCall/mul_1", "shape": [64], "dtype": "float32"}, {"name": "StatefulPartitionedCall/transpose_1", "shape": [64, 64], "dtype": "float32"}, {"name": "StatefulPartitionedCall/mul_3", "shape": [64], "dtype": "float32"}, {"name": "StatefulPartitionedCall/transpose_2", "shape": [64, 4], "dtype": "float32"}, {"name": "StatefulPartitionedCall/mul_5", "shape": [4], "dtype": "float32"}]}]}